models/bertopic_model/topic_embeddings.safetensors (safetensors, 487000 bytes, 1 tensors)

topic_embeddings f4 [317, 384]
0	0xbb6db55c	-0.0036271429
1	0xbd117254	-0.035509422
2	0x3bf6d750	0.0075329915
3	0x3c6159c3	0.013754311
4	0x3ca2242f	0.019792644
5	0x3cec3d29	0.028837757
6	0x3b9586dc	0.0045631956
7	0xbcc5d4c3	-0.024149304
8	0xbd1c974d	-0.03823023
9	0x3a4899bc	0.0007652303
10	0x3af73a24	0.0018861932
11	0xbc054173	-0.00813328
12	0x3bbeb4e3	0.005819903
13	0xbc8c100b	-0.017097494
14	0x3c04e16c	0.008110385
15	0x3c88cab5	0.01669822
16	0x3d2704a3	0.040775906
17	0x3bb357a4	0.005473094
18	0xbd39ecb9	-0.045391772
19	0x3c24790d	0.010038626
20	0xbc505384	-0.012715224
21	0xbbb9a80c	-0.0056657847
22	0xbcbb01cb	-0.022828003
23	0x39bdb6b5	0.00036185017
24	0xbd01c0e5	-0.0316781
25	0x3c448f2a	0.011997024
26	0xbd392327	-0.04519954
27	0xbcc454c1	-0.023966195
28	0xbcf9ae9c	-0.030478768
29	0xbd056998	-0.032571405
30	0xbb2737bf	-0.0025515405
31	0x3d1d2acc	0.038370892
32	0x3c7ae060	0.015312284
33	0x3c0f373a	0.008741194
34	0x3cd3891c	0.025822215
35	0x3ade292e	0.0016949528
36	0x3c2071b5	0.009792735
37	0x3d1f98d7	0.03896412
38	0x3ca52a4c	0.02016177
39	0xbd040f96	-0.032241426
40	0xbca147a0	-0.019687474
41	0xbd6a50dd	-0.057206023
42	0xbbb26762	-0.005444453
43	0xbcb6855e	-0.022280391
44	0xbc9a5060	-0.018837154
45	0xbd1da6b2	-0.03848905
46	0xbc6f5228	-0.01460699
47	0xbccee659	-0.025256323
48	0xbac14972	-0.001474662
49	0xbbce1237	-0.0062887925
50	0xbcf7423f	-0.030182956
51	0xbd0dba22	-0.03460134
52	0x3d0c70e5	0.034287352
53	0x3c0d8f91	0.008640186
54	0xbc69328f	-0.0142332455
55	0xbd0b3616	-0.033987127
56	0xbcda8513	-0.026674783
57	0x3c26274a	0.010141203
58	0xbc3ad8a7	-0.011404193
59	0xbc7c7311	-0.015408293
60	0xbc8944a7	-0.016756369
61	0xbbc497a7	-0.0059995237
62	0xbb3ed39e	-0.0029117833
63	0x3b4bfd26	0.003112623
64	0xbc97f2e2	-0.018548433
65	0x3c9b006f	0.018921105
66	0xbd132a0a	-0.035928763
67	0x3c41e9a5	0.01183549
68	0xbb758ba6	-0.003746727
69	0xbaef3b79	-0.0018251977
70	0x3c0435f8	0.008069508
71	0x3c1afa43	0.009459081
72	0xbc0b15db	-0.0084890975
73	0x3c9203c1	0.017824056
74	0x3a1fb367	0.00060921017
75	0xbae03956	-0.0017106931
76	0x3c865854	0.01639954
77	0x3bca88e0	0.0061808676
78	0x3cc16847	0.023609294
79	0xbcc995f1	-0.02460763
80	0x3c959e76	0.018264037
81	0xbce0b050	-0.027427822
82	0xbbfb658c	-0.0076720174
83	0xbbe68c8b	-0.007035797
84	0xbd1a820d	-0.037721682
85	0x3a2ee689	0.00066719257
86	0xbd348e71	-0.044081155
87	0xbc8ff2bc	-0.0175718
88	0xbc5bcb1f	-0.013415127
89	0xbc67a2c4	-0.014137927
90	0xbbc5e0ea	-0.0060387747
91	0xbbd68f93	-0.006547877
92	0x3d2b0710	0.041754782
93	0xbc2f0d39	-0.010684305
94	0x3bfd8389	0.0077366275
95	0xbd0cff7d	-0.03442334
96	0xbcc020ce	-0.023453142
97	0xbb816f81	-0.00395006
98	0xbcc0dc4f	-0.023542551
99	0x3cdcc139	0.026947604
100	0xbc4e1885	-0.012579088
101	0x3c767c44	0.015044276
102	0xbc3ead3c	-0.011637982
103	0xbcdcae4c	-0.02693858
104	0x3bad7f42	0.0052947113
105	0xbd30c2ca	-0.043154515
106	0xbbc99d11	-0.006152757
107	0x3bee49f2	0.0072719986
108	0xbc8fbc35	-0.017545799
109	0x3c938d77	0.018011792
110	0x3bcbd9a0	0.0062210113
111	0x3caf2e09	0.021384256
112	0xbcf0185e	-0.029308494
113	0xbd3e5fcd	-0.04647808
114	0x3c57dfd7	0.013175926
115	0xbc51dbb3	-0.012808728
116	0xbc88d9f2	-0.016705487
117	0x3c82ccb9	0.01596676
118	0xbbc80bad	-0.0061049075
119	0xbb2c5525	-0.0026295867
120	0xbc674811	-0.014116303
121	0x3ce8fba8	0.028440312
122	0xbcfe9624	-0.031077452
123	0x3c4cb595	0.012494464
124	0x3b56f931	0.0032802338
125	0x3cc8f549	0.024531024
126	0xbc270de1	-0.01019618
127	0x0aeae6aa	2.2620147e-32
128	0x3c19e88d	0.009393823
129	0x3c3c97a4	0.011510763
130	0x3a8ad856	0.0010593038
131	0x3b90e547	0.0044218632
132	0xba8b672c	-0.0010635606
133	0x3c0c3e39	0.008559757
134	0xbc8014cd	-0.015634919
135	0xbc8349b6	-0.016026359
136	0xbc5545e4	-0.0130171515
137	0xbc3d4263	-0.011551472
138	0x3b077373	0.0020668178
139	0xbab30ad9	-0.0013659849
140	0xbc47feed	-0.012206775
141	0x3c9f08e0	0.019413412
142	0xbce3874b	-0.027774474
143	0xbca512b4	-0.02015052
144	0xbc24f354	-0.01006778
145	0xbbc75461	-0.006083057
146	0xbce137d7	-0.027492447
147	0xbbb7f293	-0.005613634
148	0x3cbf1ba2	0.023328606
149	0x3c4fd44b	0.012684892
150	0x3c6a9753	0.014318305
151	0xbc302552	-0.010751085
152	0x3c3040c5	0.01075763
153	0xbcfb1c02	-0.030653004
154	0x3bbb0a1a	0.0057079913
155	0x3aa47c5a	0.0012549267
156	0x3c80a90f	0.015705613
157	0x3cbb2b03	0.022847658
158	0xbc073118	-0.008251451
159	0x3bbc4748	0.005745802
160	0x3caeb997	0.02132873
161	0xbc9a5f95	-0.018844405
162	0x3b776cc8	0.0037754048
163	0x3c8ad1b9	0.016945707
164	0x3cc06484	0.02348543
165	0xbce3e5b4	-0.027819492
166	0xbc00a6fa	-0.00785231
167	0xbd4c945d	-0.049946178
168	0xbcc0eb5a	-0.023549724
169	0x3c6d77db	0.014493908
170	0xbc2d08f3	-0.010561216
171	0x3890a566	6.897263e-05
172	0x3c768cee	0.015048249
173	0x3c843ed3	0.016143238
174	0x3cb84df8	0.022498116
175	0xbb9d7c2f	-0.0048060636
176	0xbac1e4e7	-0.001479295
177	0x3b490a03	0.0030676133
178	0xbbd8228c	-0.006595915
179	0x3cc06f1c	0.023490481
180	0xbc45050d	-0.01202513
181	0xbb2a9518	-0.0026028808
182	0xbca50a73	-0.020146584
183	0xbbe1f3e2	-0.006895528
184	0xbca476e6	-0.020076226
185	0x3b48468d	0.003055963
186	0x3c912d01	0.017721655
187	0x3af557cc	0.0018718182
188	0xbc4c1f16	-0.012458583
189	0x3c1e31d7	0.009655437
190	0xbd025e12	-0.031827994
191	0xbc26ff27	-0.010192669
192	0xbce0b643	-0.02743066
193	0xbc5bf8a5	-0.013425981
194	0x3c3985cb	0.011323403
195	0xbca6a0ce	-0.02034035
196	0xbca14eef	-0.019690959
197	0x3d597327	0.053088333
198	0x3c9b22b8	0.018937454
199	0xbbc4e39e	-0.0060085794
200	0xbbef6ee1	-0.007306919
201	0x3bdd19a4	0.0067474414
202	0xbb67a3f8	-0.0035345536
203	0x3ae8495c	0.0017722058
204	0x3bfebbf4	0.0077738706
205	0xbc176071	-0.009239302
206	0x3c53c931	0.012926386
207	0xbc3a82a2	-0.011383684
208	0x39930b39	0.00028046386
209	0xbd0e560b	-0.034750026
210	0x3cd30b1d	0.025762135
211	0x3c935986	0.017987024
212	0x3d050348	0.032473832
213	0xbad1b043	-0.0015997965
214	0x3cdda3e3	0.027055686
215	0xbd100bc0	-0.035167456
216	0xbc0538cf	-0.00813122
217	0x3ca6c494	0.020357408
218	0xbceda21b	-0.029007962
219	0xba67b4f4	-0.0008838915
220	0x3cb9992c	0.022656046
221	0x3afa2cb6	0.0019086811
222	0xbd1d5606	-0.038412116
223	0x8aec1ae3	-2.2736087e-32
224	0xbcd8a07f	-0.026443718
225	0xbc0f5046	-0.008747166
226	0x3a52d7b3	0.0008043006
227	0x3c6bbb46	0.014387911
228	0x3cdc2769	0.026874261
229	0xbc698e92	-0.014255183
230	0xbd0ab203	-0.03386117
231	0xbd01f155	-0.031724293
232	0x3d7faced	0.062420774
233	0x3b5b2d58	0.0033443775
234	0xbbd54272	-0.006508165
235	0x3ab0b5be	0.0013481898
236	0xbc36776e	-0.011136873
237	0x3c838acc	0.016057394
238	0xbc5a6c78	-0.013331525
239	0xbd1fae33	-0.03898449
240	0x3c14d59e	0.009084133
241	0xbc412a27	-0.011789835
242	0xbc9c1a5d	-0.01905554
243	0x3cd3a7fa	0.025836933
244	0x3c5f0aaf	0.013613387
245	0x3d07a479	0.033115838
246	0xbd5fe4f4	-0.054661706
247	0x3d1b30bb	0.03788827
248	0xbc5b85f2	-0.013398634
249	0x3cae19c7	0.021252526
250	0xbb8674f9	-0.0041032997
251	0x3cb6393a	0.022244085
252	0x3c0c16e1	0.008550377
253	0x3a58138f	0.00082426606
254	0xbd0e1f8b	-0.03469805
255	0xbba9b54a	-0.005179082
